…
        (resnets): ModuleList(
          (0-1): 2 x ResnetBlock2D(
            (norm1): GroupNorm(32, 512, eps=1e-06, affine=True)
            (conv1): LoRACompatibleConv(512, 512, kernel_size=(3, 3), stride=(1, 1), padding=(1, 1))
            (norm2): GroupNorm(32, 512, eps=1e-06, affine=True)
            (dropout): Dropout(p=0.0, inplace=False)
            (conv2): LoRACompatibleConv(512, 512, kernel_size=(3, 3), stride=(1, 1), padding=(1, 1))
            (nonlinearity): SiLU()
          )
        )
      )
      (conv_norm_out): GroupNorm(32, 128, eps=1e-06, affine=True)
      (conv_act): SiLU()
      (conv_out): Conv2d(128, 3, kernel_size=(3, 3), stride=(1, 1), padding=(1, 1))
    )
    (quant_conv): Conv2d(8, 8, kernel_size=(1, 1), stride=(1, 1))
    (post_quant_conv): Conv2d(4, 4, kernel_size=(1, 1), stride=(1, 1))
  )
  (unet): UNet2DConditionModel(
    (conv_in): Conv2d(4, 320, kernel_size=(3, 3), stride=(1, 1), padding=(1, 1))
    (time_proj): Timesteps()
    (time_embedding): TimestepEmbedding(
      (linear_1): LoRACompatibleLinear(in_features=320, out_features=1280, bias=True)
      (act): SiLU()
      (linear_2): LoRACompatibleLinear(in_features=1280, out_features=1280, bias=True)
    )
    (down_blocks): ModuleList(
      (0): CrossAttnDownBlock2D(
        (attentions): ModuleList(
          (0-1): 2 x Transformer2DModel(
            (norm): GroupNorm(32, 320, eps=1e-06, affine=True)
            (proj_in): LoRACompatibleConv(320, 320, kernel_size=(1, 1), stride=(1, 1))
            (transformer_blocks): ModuleList(
              (0): BasicTransformerBlock(
                (norm1): LayerNorm((320,), eps=1e-05, elementwise_affine=True)
                (attn1): Attention(
                  (to_q): LoRACompatibleLinear(in_features=320, out_features=320, bias=False)
                  (to_k): LoRACompatibleLinear(in_features=320, out_features=320, bias=False)
                  (to_v): LoRACompatibleLinear(in_features=320, out_features=320, bias=False)
                  (to_out): ModuleList(
                    (0): LoRACompatibleLinear(in_features=320, out_features=320, bias=True)
                    (1): Dropout(p=0.0, inplace=False)
                  )
                  (processor): LoRAAttnProcessor(
                    (to_q_lora): LoRALinearLayer(
                      (down): Linear(in_features=320, out_features=4, bias=False)
                      (up): Linear(in_features=4, out_features=320, bias=False)
                    )
                    (to_k_lora): LoRALinearLayer(
                      (down): Linear(in_features=320, out_features=4, bias=False)
                      (up): Linear(in_features=4, out_features=320, bias=False)
                    )
                    (to_v_lora): LoRALinearLayer(
                      (down): Linear(in_features=320, out_features=4, bias=False)
                      (up): Linear(in_features=4, out_features=320, bias=False)
                    )
                    (to_out_lora): LoRALinearLayer(
                      (down): Linear(in_features=320, out_features=4, bias=False)
                      (up): Linear(in_features=4, out_features=320, bias=False)
                    )
                  )
                )
                (norm2): LayerNorm((320,), eps=1e-05, elementwise_affine=True)
                (attn2): Attention(
                  (to_q): LoRACompatibleLinear(in_features=320, out_features=320, bias=False)
                  (to_k): LoRACompatibleLinear(in_features=768, out_features=320, bias=False)
                  (to_v): LoRACompatibleLinear(in_features=768, out_features=320, bias=False)
                  (to_out): ModuleList(
                    (0): LoRACompatibleLinear(in_features=320, out_features=320, bias=True)
                    (1): Dropout(p=0.0, inplace=False)
                  )
                  (processor): LoRAAttnProcessor(
                    (to_q_lora): LoRALinearLayer(
                      (down): Linear(in_features=320, out_features=4, bias=False)
                      (up): Linear(in_features=4, out_features=320, bias=False)
                    )
                    (to_k_lora): LoRALinearLayer(
                      (down): Linear(in_features=768, out_features=4, bias=False)
                      (up): Linear(in_features=4, out_features=320, bias=False)
                    )
                    (to_v_lora): LoRALinearLayer(
                      (down): Linear(in_features=768, out_features=4, bias=False)
                      (up): Linear(in_features=4, out_features=320, bias=False)
                    )
                    (to_out_lora): LoRALinearLayer(
                      (down): Linear(in_features=320, out_features=4, bias=False)
                      (up): Linear(in_features=4, out_features=320, bias=False)
                    )
                  )
                )
                (norm3): LayerNorm((320,), eps=1e-05, elementwise_affine=True)
                (ff): FeedForward(
                  (net): ModuleList(
                    (0): GEGLU(
                      (proj): LoRACompatibleLinear(in_features=320, out_features=2560, bias=True)
                    )
                    (1): Dropout(p=0.0, inplace=False)
                    (2): LoRACompatibleLinear(in_features=1280, out_features=320, bias=True)
…
            (nonlinearity): SiLU()
          )
        )
        (downsamplers): ModuleList(
          (0): Downsample2D(
            (conv): LoRACompatibleConv(320, 320, kernel_size=(3, 3), stride=(2, 2), padding=(1, 1))
          )
        )
      )
      (1): CrossAttnDownBlock2D(
        (attentions): ModuleList(
          (0-1): 2 x Transformer2DModel(
            (norm): GroupNorm(32, 640, eps=1e-06, affine=True)
            (proj_in): LoRACompatibleConv(640, 640, kernel_size=(1, 1), stride=(1, 1))
            (transformer_blocks): ModuleList(
              (0): BasicTransformerBlock(
                (norm1): LayerNorm((640,), eps=1e-05, elementwise_affine=True)
                (attn1): Attention(
                  (to_q): LoRACompatibleLinear(in_features=640, out_features=640, bias=False)
                  (to_k): LoRACompatibleLinear(in_features=640, out_features=640, bias=False)
                  (to_v): LoRACompatibleLinear(in_features=640, out_features=640, bias=False)
                  (to_out): ModuleList(
                    (0): LoRACompatibleLinear(in_features=640, out_features=640, bias=True)
                    (1): Dropout(p=0.0, inplace=False)
                  )
                  (processor): LoRAAttnProcessor(
                    (to_q_lora): LoRALinearLayer(
                      (down): Linear(in_features=640, out_features=4, bias=False)
                      (up): Linear(in_features=4, out_features=640, bias=False)
                    )
                    (to_k_lora): LoRALinearLayer(
                      (down): Linear(in_features=640, out_features=4, bias=False)
                      (up): Linear(in_features=4, out_features=640, bias=False)
                    )
                    (to_v_lora): LoRALinearLayer(
                      (down): Linear(in_features=640, out_features=4, bias=False)
                      (up): Linear(in_features=4, out_features=640, bias=False)
                    )
                    (to_out_lora): LoRALinearLayer(
                      (down): Linear(in_features=640, out_features=4, bias=False)
                      (up): Linear(in_features=4, out_features=640, bias=False)
                    )
                  )
                )
                (norm2): LayerNorm((640,), eps=1e-05, elementwise_affine=True)
                (attn2): Attention(
                  (to_q): LoRACompatibleLinear(in_features=640, out_features=640, bias=False)
                  (to_k): LoRACompatibleLinear(in_features=768, out_features=640, bias=False)
                  (to_v): LoRACompatibleLinear(in_features=768, out_features=640, bias=False)
                  (to_out): ModuleList(
                    (0): LoRACompatibleLinear(in_features=640, out_features=640, bias=True)
                    (1): Dropout(p=0.0, inplace=False)
                  )
                  (processor): LoRAAttnProcessor(
                    (to_q_lora): LoRALinearLayer(
                      (down): Linear(in_features=640, out_features=4, bias=False)
                      (up): Linear(in_features=4, out_features=640, bias=False)
                    )
                    (to_k_lora): LoRALinearLayer(
                      (down): Linear(in_features=768, out_features=4, bias=False)
                      (up): Linear(in_features=4, out_features=640, bias=False)
                    )
                    (to_v_lora): LoRALinearLayer(
                      (down): Linear(in_features=768, out_features=4, bias=False)
                      (up): Linear(in_features=4, out_features=640, bias=False)
                    )
                    (to_out_lora): LoRALinearLayer(
                      (down): Linear(in_features=640, out_features=4, bias=False)
                      (up): Linear(in_features=4, out_features=640, bias=False)
                    )
                  )
                )
                (norm3): LayerNorm((640,), eps=1e-05, elementwise_affine=True)
                (ff): FeedForward(
                  (net): ModuleList(
                    (0): GEGLU(
                      (proj): LoRACompatibleLinear(in_features=640, out_features=5120, bias=True)
                    )
                    (1): Dropout(p=0.0, inplace=False)
                    (2): LoRACompatibleLinear(in_features=2560, out_features=640, bias=True)
…
            (nonlinearity): SiLU()
          )
        )
        (downsamplers): ModuleList(
          (0): Downsample2D(
            (conv): LoRACompatibleConv(640, 640, kernel_size=(3, 3), stride=(2, 2), padding=(1, 1))
          )
        )
      )
      (2): CrossAttnDownBlock2D(
        (attentions): ModuleList(
          (0-1): 2 x Transformer2DModel(
            (norm): GroupNorm(32, 1280, eps=1e-06, affine=True)
            (proj_in): LoRACompatibleConv(1280, 1280, kernel_size=(1, 1), stride=(1, 1))
            (transformer_blocks): ModuleList(
              (0): BasicTransformerBlock(
                (norm1): LayerNorm((1280,), eps=1e-05, elementwise_affine=True)
                (attn1): Attention(
                  (to_q): LoRACompatibleLinear(in_features=1280, out_features=1280, bias=False)
                  (to_k): LoRACompatibleLinear(in_features=1280, out_features=1280, bias=False)
                  (to_v): LoRACompatibleLinear(in_features=1280, out_features=1280, bias=False)
                  (to_out): ModuleList(
                    (0): LoRACompatibleLinear(in_features=1280, out_features=1280, bias=True)
                    (1): Dropout(p=0.0, inplace=False)
                  )
                  (processor): LoRAAttnProcessor(
                    (to_q_lora): LoRALinearLayer(
                      (down): Linear(in_features=1280, out_features=4, bias=False)
                      (up): Linear(in_features=4, out_features=1280, bias=False)
                    )
                    (to_k_lora): LoRALinearLayer(
                      (down): Linear(in_features=1280, out_features=4, bias=False)
                      (up): Linear(in_features=4, out_features=1280, bias=False)
                    )
                    (to_v_lora): LoRALinearLayer(
                      (down): Linear(in_features=1280, out_features=4, bias=False)
                      (up): Linear(in_features=4, out_features=1280, bias=False)
                    )
                    (to_out_lora): LoRALinearLayer(
                      (down): Linear(in_features=1280, out_features=4, bias=False)
                      (up): Linear(in_features=4, out_features=1280, bias=False)
                    )
                  )
                )
                (norm2): LayerNorm((1280,), eps=1e-05, elementwise_affine=True)
                (attn2): Attention(
                  (to_q): LoRACompatibleLinear(in_features=1280, out_features=1280, bias=False)
                  (to_k): LoRACompatibleLinear(in_features=768, out_features=1280, bias=False)
                  (to_v): LoRACompatibleLinear(in_features=768, out_features=1280, bias=False)
                  (to_out): ModuleList(
                    (0): LoRACompatibleLinear(in_features=1280, out_features=1280, bias=True)
                    (1): Dropout(p=0.0, inplace=False)
                  )
                  (processor): LoRAAttnProcessor(
                    (to_q_lora): LoRALinearLayer(
                      (down): Linear(in_features=1280, out_features=4, bias=False)
                      (up): Linear(in_features=4, out_features=1280, bias=False)
                    )
                    (to_k_lora): LoRALinearLayer(
                      (down): Linear(in_features=768, out_features=4, bias=False)
                      (up): Linear(in_features=4, out_features=1280, bias=False)
                    )
                    (to_v_lora): LoRALinearLayer(
                      (down): Linear(in_features=768, out_features=4, bias=False)
                      (up): Linear(in_features=4, out_features=1280, bias=False)
                    )
                    (to_out_lora): LoRALinearLayer(
                      (down): Linear(in_features=1280, out_features=4, bias=False)
                      (up): Linear(in_features=4, out_features=1280, bias=False)
                    )
                  )
                )
                (norm3): LayerNorm((1280,), eps=1e-05, elementwise_affine=True)
                (ff): FeedForward(
                  (net): ModuleList(
                    (0): GEGLU(
                      (proj): LoRACompatibleLinear(in_features=1280, out_features=10240, bias=True)
                    )
                    (1): Dropout(p=0.0, inplace=False)
                    (2): LoRACompatibleLinear(in_features=5120, out_features=1280, bias=True)
…
            (conv_shortcut): LoRACompatibleConv(960, 640, kernel_size=(1, 1), stride=(1, 1))
          )
        )
        (upsamplers): ModuleList(
          (0): Upsample2D(
            (conv): LoRACompatibleConv(640, 640, kernel_size=(3, 3), stride=(1, 1), padding=(1, 1))
          )
        )
      )
      (3): CrossAttnUpBlock2D(
        (attentions): ModuleList(
          (0-2): 3 x Transformer2DModel(
            (norm): GroupNorm(32, 320, eps=1e-06, affine=True)
            (proj_in): LoRACompatibleConv(320, 320, kernel_size=(1, 1), stride=(1, 1))
            (transformer_blocks): ModuleList(
              (0): BasicTransformerBlock(
                (norm1): LayerNorm((320,), eps=1e-05, elementwise_affine=True)
                (attn1): Attention(
                  (to_q): LoRACompatibleLinear(in_features=320, out_features=320, bias=False)
                  (to_k): LoRACompatibleLinear(in_features=320, out_features=320, bias=False)
                  (to_v): LoRACompatibleLinear(in_features=320, out_features=320, bias=False)
                  (to_out): ModuleList(
                    (0): LoRACompatibleLinear(in_features=320, out_features=320, bias=True)
                    (1): Dropout(p=0.0, inplace=False)
                  )
                  (processor): LoRAAttnProcessor(
                    (to_q_lora): LoRALinearLayer(
                      (down): Linear(in_features=320, out_features=4, bias=False)
                      (up): Linear(in_features=4, out_features=320, bias=False)
                    )
                    (to_k_lora): LoRALinearLayer(
                      (down): Linear(in_features=320, out_features=4, bias=False)
                      (up): Linear(in_features=4, out_features=320, bias=False)
                    )
                    (to_v_lora): LoRALinearLayer(
                      (down): Linear(in_features=320, out_features=4, bias=False)
                      (up): Linear(in_features=4, out_features=320, bias=False)
                    )
                    (to_out_lora): LoRALinearLayer(
                      (down): Linear(in_features=320, out_features=4, bias=False)
                      (up): Linear(in_features=4, out_features=320, bias=False)
                    )
                  )
                )
                (norm2): LayerNorm((320,), eps=1e-05, elementwise_affine=True)
                (attn2): Attention(
                  (to_q): LoRACompatibleLinear(in_features=320, out_features=320, bias=False)
                  (to_k): LoRACompatibleLinear(in_features=768, out_features=320, bias=False)
                  (to_v): LoRACompatibleLinear(in_features=768, out_features=320, bias=False)
                  (to_out): ModuleList(
                    (0): LoRACompatibleLinear(in_features=320, out_features=320, bias=True)
                    (1): Dropout(p=0.0, inplace=False)
                  )
                  (processor): LoRAAttnProcessor(
                    (to_q_lora): LoRALinearLayer(
                      (down): Linear(in_features=320, out_features=4, bias=False)
                      (up): Linear(in_features=4, out_features=320, bias=False)
                    )
                    (to_k_lora): LoRALinearLayer(
                      (down): Linear(in_features=768, out_features=4, bias=False)
                      (up): Linear(in_features=4, out_features=320, bias=False)
                    )
                    (to_v_lora): LoRALinearLayer(
                      (down): Linear(in_features=768, out_features=4, bias=False)
                      (up): Linear(in_features=4, out_features=320, bias=False)
                    )
                    (to_out_lora): LoRALinearLayer(
                      (down): Linear(in_features=320, out_features=4, bias=False)
                      (up): Linear(in_features=4, out_features=320, bias=False)
                    )
                  )
                )
                (norm3): LayerNorm((320,), eps=1e-05, elementwise_affine=True)
                (ff): FeedForward(
                  (net): ModuleList(
                    (0): GEGLU(
                      (proj): LoRACompatibleLinear(in_features=320, out_features=2560, bias=True)
                    )
                    (1): Dropout(p=0.0, inplace=False)
                    (2): LoRACompatibleLinear(in_features=1280, out_features=320, bias=True)
…
          (norm1): GroupNorm(32, 1280, eps=1e-05, affine=True)
          (conv1): LoRACompatibleConv(1280, 1280, kernel_size=(3, 3), stride=(1, 1), padding=(1, 1))
          (time_emb_proj): LoRACompatibleLinear(in_features=1280, out_features=1280, bias=True)
          (norm2): GroupNorm(32, 1280, eps=1e-05, affine=True)
          (dropout): Dropout(p=0.0, inplace=False)
          (conv2): LoRACompatibleConv(1280, 1280, kernel_size=(3, 3), stride=(1, 1), padding=(1, 1))
          (nonlinearity): SiLU()
        )
      )
    )
    (conv_norm_out): GroupNorm(32, 320, eps=1e-05, affine=True)
    (conv_act): SiLU()
    (conv_out): Conv2d(320, 4, kernel_size=(3, 3), stride=(1, 1), padding=(1, 1))
  )
  (text_encoder): CLIPTextModel(
    (text_model): CLIPTextTransformer(
      (embeddings): CLIPTextEmbeddings(
        (token_embedding): Embedding(49408, 768)
        (position_embedding): Embedding(77, 768)
      )
      (encoder): CLIPEncoder(
        (layers): ModuleList(
          (0-11): 12 x CLIPEncoderLayer(
            (self_attn): CLIPAttention(
              (k_proj): Linear(in_features=768, out_features=768, bias=True)
              (v_proj): Linear(in_features=768, out_features=768, bias=True)
              (q_proj): Linear(in_features=768, out_features=768, bias=True)
              (out_proj): Linear(in_features=768, out_features=768, bias=True)
            )
            (layer_norm1): LayerNorm((768,), eps=1e-05, elementwise_affine=True)
            (mlp): CLIPMLP(
              (activation_fn): QuickGELUActivation()
              (fc1): Linear(in_features=768, out_features=3072, bias=True)
              (fc2): Linear(in_features=3072, out_features=768, bias=True)
            )
            (layer_norm2): LayerNorm((768,), eps=1e-05, elementwise_affine=True)
          )
        )
      )
      (final_layer_norm): LayerNorm((768,), eps=1e-05, elementwise_affine=True)
    )
  )
  (regressor): Linear(in_features=4096, out_features=6, bias=True)
  (classifier): Sequential(
    (0): Linear(in_features=4096, out_features=2048, bias=True)
    (1): Linear(in_features=2048, out_features=18, bias=True)
    (2): Softmax(dim=1)
  )
  (lora_layers): AttnProcsLayers(
    (layers): ModuleList(
      (0): LoRAAttnProcessor(
        (to_q_lora): LoRALinearLayer(
          (down): Linear(in_features=320, out_features=4, bias=False)
          (up): Linear(in_features=4, out_features=320, bias=False)
        )
        (to_k_lora): LoRALinearLayer(
          (down): Linear(in_features=320, out_features=4, bias=False)
          (up): Linear(in_features=4, out_features=320, bias=False)
        )
        (to_v_lora): LoRALinearLayer(
          (down): Linear(in_features=320, out_features=4, bias=False)
          (up): Linear(in_features=4, out_features=320, bias=False)
        )
        (to_out_lora): LoRALinearLayer(
          (down): Linear(in_features=320, out_features=4, bias=False)
          (up): Linear(in_features=4, out_features=320, bias=False)
        )
      )
      (1): LoRAAttnProcessor(
        (to_q_lora): LoRALinearLayer(
          (down): Linear(in_features=320, out_features=4, bias=False)
          (up): Linear(in_features=4, out_features=320, bias=False)
        )
        (to_k_lora): LoRALinearLayer(
          (down): Linear(in_features=768, out_features=4, bias=False)
          (up): Linear(in_features=4, out_features=320, bias=False)
        )
        (to_v_lora): LoRALinearLayer(
          (down): Linear(in_features=768, out_features=4, bias=False)
          (up): Linear(in_features=4, out_features=320, bias=False)
        )
        (to_out_lora): LoRALinearLayer(
          (down): Linear(in_features=320, out_features=4, bias=False)
          (up): Linear(in_features=4, out_features=320, bias=False)
        )
      )
      (2): LoRAAttnProcessor(
        (to_q_lora): LoRALinearLayer(
          (down): Linear(in_features=320, out_features=4, bias=False)
          (up): Linear(in_features=4, out_features=320, bias=False)
        )
        (to_k_lora): LoRALinearLayer(
          (down): Linear(in_features=320, out_features=4, bias=False)
          (up): Linear(in_features=4, out_features=320, bias=False)
        )
        (to_v_lora): LoRALinearLayer(
          (down): Linear(in_features=320, out_features=4, bias=False)
          (up): Linear(in_features=4, out_features=320, bias=False)
        )
        (to_out_lora): LoRALinearLayer(
          (down): Linear(in_features=320, out_features=4, bias=False)
          (up): Linear(in_features=4, out_features=320, bias=False)
        )
      )
      (3): LoRAAttnProcessor(
        (to_q_lora): LoRALinearLayer(
          (down): Linear(in_features=320, out_features=4, bias=False)
          (up): Linear(in_features=4, out_features=320, bias=False)
        )
        (to_k_lora): LoRALinearLayer(
          (down): Linear(in_features=768, out_features=4, bias=False)
          (up): Linear(in_features=4, out_features=320, bias=False)
        )
        (to_v_lora): LoRALinearLayer(
          (down): Linear(in_features=768, out_features=4, bias=False)
          (up): Linear(in_features=4, out_features=320, bias=False)
        )
        (to_out_lora): LoRALinearLayer(
          (down): Linear(in_features=320, out_features=4, bias=False)
          (up): Linear(in_features=4, out_features=320, bias=False)
        )
      )
      (4): LoRAAttnProcessor(
        (to_q_lora): LoRALinearLayer(
          (down): Linear(in_features=640, out_features=4, bias=False)
          (up): Linear(in_features=4, out_features=640, bias=False)
        )
        (to_k_lora): LoRALinearLayer(
          (down): Linear(in_features=640, out_features=4, bias=False)
          (up): Linear(in_features=4, out_features=640, bias=False)
        )
        (to_v_lora): LoRALinearLayer(
          (down): Linear(in_features=640, out_features=4, bias=False)
          (up): Linear(in_features=4, out_features=640, bias=False)
        )
        (to_out_lora): LoRALinearLayer(
          (down): Linear(in_features=640, out_features=4, bias=False)
          (up): Linear(in_features=4, out_features=640, bias=False)
        )
      )
      (5): LoRAAttnProcessor(
        (to_q_lora): LoRALinearLayer(
          (down): Linear(in_features=640, out_features=4, bias=False)
          (up): Linear(in_features=4, out_features=640, bias=False)
        )
        (to_k_lora): LoRALinearLayer(
          (down): Linear(in_features=768, out_features=4, bias=False)
          (up): Linear(in_features=4, out_features=640, bias=False)
        )
        (to_v_lora): LoRALinearLayer(
          (down): Linear(in_features=768, out_features=4, bias=False)
          (up): Linear(in_features=4, out_features=640, bias=False)
        )
        (to_out_lora): LoRALinearLayer(
          (down): Linear(in_features=640, out_features=4, bias=False)
          (up): Linear(in_features=4, out_features=640, bias=False)
        )
      )
      (6): LoRAAttnProcessor(
        (to_q_lora): LoRALinearLayer(
          (down): Linear(in_features=640, out_features=4, bias=False)
          (up): Linear(in_features=4, out_features=640, bias=False)
        )
        (to_k_lora): LoRALinearLayer(
          (down): Linear(in_features=640, out_features=4, bias=False)
          (up): Linear(in_features=4, out_features=640, bias=False)
        )
        (to_v_lora): LoRALinearLayer(
          (down): Linear(in_features=640, out_features=4, bias=False)
          (up): Linear(in_features=4, out_features=640, bias=False)
        )
        (to_out_lora): LoRALinearLayer(
          (down): Linear(in_features=640, out_features=4, bias=False)
          (up): Linear(in_features=4, out_features=640, bias=False)
        )
      )
      (7): LoRAAttnProcessor(
        (to_q_lora): LoRALinearLayer(
          (down): Linear(in_features=640, out_features=4, bias=False)
          (up): Linear(in_features=4, out_features=640, bias=False)
        )
        (to_k_lora): LoRALinearLayer(
          (down): Linear(in_features=768, out_features=4, bias=False)
          (up): Linear(in_features=4, out_features=640, bias=False)
        )
        (to_v_lora): LoRALinearLayer(
          (down): Linear(in_features=768, out_features=4, bias=False)
          (up): Linear(in_features=4, out_features=640, bias=False)
        )
        (to_out_lora): LoRALinearLayer(
          (down): Linear(in_features=640, out_features=4, bias=False)
          (up): Linear(in_features=4, out_features=640, bias=False)
        )
      )
      (8): LoRAAttnProcessor(
        (to_q_lora): LoRALinearLayer(
          (down): Linear(in_features=1280, out_features=4, bias=False)
          (up): Linear(in_features=4, out_features=1280, bias=False)
        )
        (to_k_lora): LoRALinearLayer(
          (down): Linear(in_features=1280, out_features=4, bias=False)
          (up): Linear(in_features=4, out_features=1280, bias=False)
        )
        (to_v_lora): LoRALinearLayer(
          (down): Linear(in_features=1280, out_features=4, bias=False)
          (up): Linear(in_features=4, out_features=1280, bias=False)
        )
        (to_out_lora): LoRALinearLayer(
          (down): Linear(in_features=1280, out_features=4, bias=False)
          (up): Linear(in_features=4, out_features=1280, bias=False)
        )
      )
      (9): LoRAAttnProcessor(
        (to_q_lora): LoRALinearLayer(
          (down): Linear(in_features=1280, out_features=4, bias=False)
          (up): Linear(in_features=4, out_features=1280, bias=False)
        )
        (to_k_lora): LoRALinearLayer(
          (down): Linear(in_features=768, out_features=4, bias=False)
          (up): Linear(in_features=4, out_features=1280, bias=False)
        )
        (to_v_lora): LoRALinearLayer(
          (down): Linear(in_features=768, out_features=4, bias=False)
          (up): Linear(in_features=4, out_features=1280, bias=False)
        )
        (to_out_lora): LoRALinearLayer(
          (down): Linear(in_features=1280, out_features=4, bias=False)
          (up): Linear(in_features=4, out_features=1280, bias=False)
        )
      )
      (10): LoRAAttnProcessor(
        (to_q_lora): LoRALinearLayer(
          (down): Linear(in_features=1280, out_features=4, bias=False)
          (up): Linear(in_features=4, out_features=1280, bias=False)
        )
        (to_k_lora): LoRALinearLayer(
          (down): Linear(in_features=1280, out_features=4, bias=False)
          (up): Linear(in_features=4, out_features=1280, bias=False)
        )
        (to_v_lora): LoRALinearLayer(
          (down): Linear(in_features=1280, out_features=4, bias=False)
          (up): Linear(in_features=4, out_features=1280, bias=False)
        )
        (to_out_lora): LoRALinearLayer(
          (down): Linear(in_features=1280, out_features=4, bias=False)
          (up): Linear(in_features=4, out_features=1280, bias=False)
        )
      )
      (11): LoRAAttnProcessor(
        (to_q_lora): LoRALinearLayer(
          (down): Linear(in_features=1280, out_features=4, bias=False)
          (up): Linear(in_features=4, out_features=1280, bias=False)
        )
        (to_k_lora): LoRALinearLayer(
          (down): Linear(in_features=768, out_features=4, bias=False)
          (up): Linear(in_features=4, out_features=1280, bias=False)
        )
        (to_v_lora): LoRALinearLayer(
          (down): Linear(in_features=768, out_features=4, bias=False)
          (up): Linear(in_features=4, out_features=1280, bias=False)
        )
        (to_out_lora): LoRALinearLayer(
          (down): Linear(in_features=1280, out_features=4, bias=False)
          (up): Linear(in_features=4, out_features=1280, bias=False)
        )
      )
      (12): LoRAAttnProcessor(
        (to_q_lora): LoRALinearLayer(
          (down): Linear(in_features=1280, out_features=4, bias=False)
          (up): Linear(in_features=4, out_features=1280, bias=False)
        )
        (to_k_lora): LoRALinearLayer(
          (down): Linear(in_features=1280, out_features=4, bias=False)
          (up): Linear(in_features=4, out_features=1280, bias=False)
        )
        (to_v_lora): LoRALinearLayer(
          (down): Linear(in_features=1280, out_features=4, bias=False)
          (up): Linear(in_features=4, out_features=1280, bias=False)
        )
        (to_out_lora): LoRALinearLayer(
          (down): Linear(in_features=1280, out_features=4, bias=False)
          (up): Linear(in_features=4, out_features=1280, bias=False)
        )
      )
      (13): LoRAAttnProcessor(
        (to_q_lora): LoRALinearLayer(
          (down): Linear(in_features=1280, out_features=4, bias=False)
          (up): Linear(in_features=4, out_features=1280, bias=False)
        )
        (to_k_lora): LoRALinearLayer(
          (down): Linear(in_features=768, out_features=4, bias=False)
          (up): Linear(in_features=4, out_features=1280, bias=False)
        )
        (to_v_lora): LoRALinearLayer(
          (down): Linear(in_features=768, out_features=4, bias=False)
          (up): Linear(in_features=4, out_features=1280, bias=False)
        )
        (to_out_lora): LoRALinearLayer(
          (down): Linear(in_features=1280, out_features=4, bias=False)
          (up): Linear(in_features=4, out_features=1280, bias=False)
        )
      )
      (14): LoRAAttnProcessor(
        (to_q_lora): LoRALinearLayer(
          (down): Linear(in_features=1280, out_features=4, bias=False)
          (up): Linear(in_features=4, out_features=1280, bias=False)
        )
        (to_k_lora): LoRALinearLayer(
          (down): Linear(in_features=1280, out_features=4, bias=False)
          (up): Linear(in_features=4, out_features=1280, bias=False)
        )
        (to_v_lora): LoRALinearLayer(
          (down): Linear(in_features=1280, out_features=4, bias=False)
          (up): Linear(in_features=4, out_features=1280, bias=False)
        )
        (to_out_lora): LoRALinearLayer(
          (down): Linear(in_features=1280, out_features=4, bias=False)
          (up): Linear(in_features=4, out_features=1280, bias=False)
        )
      )
      (15): LoRAAttnProcessor(
        (to_q_lora): LoRALinearLayer(
          (down): Linear(in_features=1280, out_features=4, bias=False)
          (up): Linear(in_features=4, out_features=1280, bias=False)
        )
        (to_k_lora): LoRALinearLayer(
          (down): Linear(in_features=768, out_features=4, bias=False)
          (up): Linear(in_features=4, out_features=1280, bias=False)
        )
        (to_v_lora): LoRALinearLayer(
          (down): Linear(in_features=768, out_features=4, bias=False)
          (up): Linear(in_features=4, out_features=1280, bias=False)
        )
        (to_out_lora): LoRALinearLayer(
          (down): Linear(in_features=1280, out_features=4, bias=False)
          (up): Linear(in_features=4, out_features=1280, bias=False)
        )
      )
      (16): LoRAAttnProcessor(
        (to_q_lora): LoRALinearLayer(
          (down): Linear(in_features=1280, out_features=4, bias=False)
          (up): Linear(in_features=4, out_features=1280, bias=False)
        )
        (to_k_lora): LoRALinearLayer(
          (down): Linear(in_features=1280, out_features=4, bias=False)
          (up): Linear(in_features=4, out_features=1280, bias=False)
        )
        (to_v_lora): LoRALinearLayer(
          (down): Linear(in_features=1280, out_features=4, bias=False)
          (up): Linear(in_features=4, out_features=1280, bias=False)
        )
        (to_out_lora): LoRALinearLayer(
          (down): Linear(in_features=1280, out_features=4, bias=False)
          (up): Linear(in_features=4, out_features=1280, bias=False)
        )
      )
      (17): LoRAAttnProcessor(
        (to_q_lora): LoRALinearLayer(
          (down): Linear(in_features=1280, out_features=4, bias=False)
          (up): Linear(in_features=4, out_features=1280, bias=False)
        )
        (to_k_lora): LoRALinearLayer(
          (down): Linear(in_features=768, out_features=4, bias=False)
          (up): Linear(in_features=4, out_features=1280, bias=False)
        )
        (to_v_lora): LoRALinearLayer(
          (down): Linear(in_features=768, out_features=4, bias=False)
          (up): Linear(in_features=4, out_features=1280, bias=False)
        )
        (to_out_lora): LoRALinearLayer(
          (down): Linear(in_features=1280, out_features=4, bias=False)
          (up): Linear(in_features=4, out_features=1280, bias=False)
        )
      )
      (18): LoRAAttnProcessor(
        (to_q_lora): LoRALinearLayer(
          (down): Linear(in_features=640, out_features=4, bias=False)
          (up): Linear(in_features=4, out_features=640, bias=False)
        )
        (to_k_lora): LoRALinearLayer(
          (down): Linear(in_features=640, out_features=4, bias=False)
          (up): Linear(in_features=4, out_features=640, bias=False)
        )
        (to_v_lora): LoRALinearLayer(
          (down): Linear(in_features=640, out_features=4, bias=False)
          (up): Linear(in_features=4, out_features=640, bias=False)
        )
        (to_out_lora): LoRALinearLayer(
          (down): Linear(in_features=640, out_features=4, bias=False)
          (up): Linear(in_features=4, out_features=640, bias=False)
        )
      )
      (19): LoRAAttnProcessor(
        (to_q_lora): LoRALinearLayer(
          (down): Linear(in_features=640, out_features=4, bias=False)
          (up): Linear(in_features=4, out_features=640, bias=False)
        )
        (to_k_lora): LoRALinearLayer(
          (down): Linear(in_features=768, out_features=4, bias=False)
          (up): Linear(in_features=4, out_features=640, bias=False)
        )
        (to_v_lora): LoRALinearLayer(
          (down): Linear(in_features=768, out_features=4, bias=False)
          (up): Linear(in_features=4, out_features=640, bias=False)
        )
        (to_out_lora): LoRALinearLayer(
          (down): Linear(in_features=640, out_features=4, bias=False)
          (up): Linear(in_features=4, out_features=640, bias=False)
        )
      )
      (20): LoRAAttnProcessor(
        (to_q_lora): LoRALinearLayer(
          (down): Linear(in_features=640, out_features=4, bias=False)
          (up): Linear(in_features=4, out_features=640, bias=False)
        )
        (to_k_lora): LoRALinearLayer(
          (down): Linear(in_features=640, out_features=4, bias=False)
          (up): Linear(in_features=4, out_features=640, bias=False)
        )
        (to_v_lora): LoRALinearLayer(
          (down): Linear(in_features=640, out_features=4, bias=False)
          (up): Linear(in_features=4, out_features=640, bias=False)
        )
        (to_out_lora): LoRALinearLayer(
          (down): Linear(in_features=640, out_features=4, bias=False)
          (up): Linear(in_features=4, out_features=640, bias=False)
        )
      )
      (21): LoRAAttnProcessor(
        (to_q_lora): LoRALinearLayer(
          (down): Linear(in_features=640, out_features=4, bias=False)
          (up): Linear(in_features=4, out_features=640, bias=False)
        )
        (to_k_lora): LoRALinearLayer(
          (down): Linear(in_features=768, out_features=4, bias=False)
          (up): Linear(in_features=4, out_features=640, bias=False)
        )
        (to_v_lora): LoRALinearLayer(
          (down): Linear(in_features=768, out_features=4, bias=False)
          (up): Linear(in_features=4, out_features=640, bias=False)
        )
        (to_out_lora): LoRALinearLayer(
          (down): Linear(in_features=640, out_features=4, bias=False)
          (up): Linear(in_features=4, out_features=640, bias=False)
        )
      )
      (22): LoRAAttnProcessor(
        (to_q_lora): LoRALinearLayer(
          (down): Linear(in_features=640, out_features=4, bias=False)
          (up): Linear(in_features=4, out_features=640, bias=False)
        )
        (to_k_lora): LoRALinearLayer(
          (down): Linear(in_features=640, out_features=4, bias=False)
          (up): Linear(in_features=4, out_features=640, bias=False)
        )
        (to_v_lora): LoRALinearLayer(
          (down): Linear(in_features=640, out_features=4, bias=False)
          (up): Linear(in_features=4, out_features=640, bias=False)
        )
        (to_out_lora): LoRALinearLayer(
          (down): Linear(in_features=640, out_features=4, bias=False)
          (up): Linear(in_features=4, out_features=640, bias=False)
        )
      )
      (23): LoRAAttnProcessor(
        (to_q_lora): LoRALinearLayer(
          (down): Linear(in_features=640, out_features=4, bias=False)
          (up): Linear(in_features=4, out_features=640, bias=False)
        )
        (to_k_lora): LoRALinearLayer(
          (down): Linear(in_features=768, out_features=4, bias=False)
          (up): Linear(in_features=4, out_features=640, bias=False)
        )
        (to_v_lora): LoRALinearLayer(
          (down): Linear(in_features=768, out_features=4, bias=False)
          (up): Linear(in_features=4, out_features=640, bias=False)
        )
        (to_out_lora): LoRALinearLayer(
          (down): Linear(in_features=640, out_features=4, bias=False)
          (up): Linear(in_features=4, out_features=640, bias=False)
        )
      )
      (24): LoRAAttnProcessor(
        (to_q_lora): LoRALinearLayer(
          (down): Linear(in_features=320, out_features=4, bias=False)
          (up): Linear(in_features=4, out_features=320, bias=False)
        )
        (to_k_lora): LoRALinearLayer(
          (down): Linear(in_features=320, out_features=4, bias=False)
          (up): Linear(in_features=4, out_features=320, bias=False)
        )
        (to_v_lora): LoRALinearLayer(
          (down): Linear(in_features=320, out_features=4, bias=False)
          (up): Linear(in_features=4, out_features=320, bias=False)
        )
        (to_out_lora): LoRALinearLayer(
          (down): Linear(in_features=320, out_features=4, bias=False)
          (up): Linear(in_features=4, out_features=320, bias=False)
        )
      )
      (25): LoRAAttnProcessor(
        (to_q_lora): LoRALinearLayer(
          (down): Linear(in_features=320, out_features=4, bias=False)
          (up): Linear(in_features=4, out_features=320, bias=False)
        )
        (to_k_lora): LoRALinearLayer(
          (down): Linear(in_features=768, out_features=4, bias=False)
          (up): Linear(in_features=4, out_features=320, bias=False)
        )
        (to_v_lora): LoRALinearLayer(
          (down): Linear(in_features=768, out_features=4, bias=False)
          (up): Linear(in_features=4, out_features=320, bias=False)
        )
        (to_out_lora): LoRALinearLayer(
          (down): Linear(in_features=320, out_features=4, bias=False)
          (up): Linear(in_features=4, out_features=320, bias=False)
        )
      )
      (26): LoRAAttnProcessor(
        (to_q_lora): LoRALinearLayer(
          (down): Linear(in_features=320, out_features=4, bias=False)
          (up): Linear(in_features=4, out_features=320, bias=False)
        )
        (to_k_lora): LoRALinearLayer(
          (down): Linear(in_features=320, out_features=4, bias=False)
          (up): Linear(in_features=4, out_features=320, bias=False)
        )
        (to_v_lora): LoRALinearLayer(
          (down): Linear(in_features=320, out_features=4, bias=False)
          (up): Linear(in_features=4, out_features=320, bias=False)
        )
        (to_out_lora): LoRALinearLayer(
          (down): Linear(in_features=320, out_features=4, bias=False)
          (up): Linear(in_features=4, out_features=320, bias=False)
        )
      )
      (27): LoRAAttnProcessor(
        (to_q_lora): LoRALinearLayer(
          (down): Linear(in_features=320, out_features=4, bias=False)
          (up): Linear(in_features=4, out_features=320, bias=False)
        )
        (to_k_lora): LoRALinearLayer(
          (down): Linear(in_features=768, out_features=4, bias=False)
          (up): Linear(in_features=4, out_features=320, bias=False)
        )
        (to_v_lora): LoRALinearLayer(
          (down): Linear(in_features=768, out_features=4, bias=False)
          (up): Linear(in_features=4, out_features=320, bias=False)
        )
        (to_out_lora): LoRALinearLayer(
          (down): Linear(in_features=320, out_features=4, bias=False)
          (up): Linear(in_features=4, out_features=320, bias=False)
        )
      )
      (28): LoRAAttnProcessor(
        (to_q_lora): LoRALinearLayer(
          (down): Linear(in_features=320, out_features=4, bias=False)
          (up): Linear(in_features=4, out_features=320, bias=False)
        )
        (to_k_lora): LoRALinearLayer(
          (down): Linear(in_features=320, out_features=4, bias=False)
          (up): Linear(in_features=4, out_features=320, bias=False)
        )
        (to_v_lora): LoRALinearLayer(
          (down): Linear(in_features=320, out_features=4, bias=False)
          (up): Linear(in_features=4, out_features=320, bias=False)
        )
        (to_out_lora): LoRALinearLayer(
          (down): Linear(in_features=320, out_features=4, bias=False)
          (up): Linear(in_features=4, out_features=320, bias=False)
        )
      )
      (29): LoRAAttnProcessor(
        (to_q_lora): LoRALinearLayer(
          (down): Linear(in_features=320, out_features=4, bias=False)
          (up): Linear(in_features=4, out_features=320, bias=False)
        )
        (to_k_lora): LoRALinearLayer(
          (down): Linear(in_features=768, out_features=4, bias=False)
          (up): Linear(in_features=4, out_features=320, bias=False)
        )
        (to_v_lora): LoRALinearLayer(
          (down): Linear(in_features=768, out_features=4, bias=False)
          (up): Linear(in_features=4, out_features=320, bias=False)
        )
        (to_out_lora): LoRALinearLayer(
          (down): Linear(in_features=320, out_features=4, bias=False)
          (up): Linear(in_features=4, out_features=320, bias=False)
        )
      )
      (30): LoRAAttnProcessor(
        (to_q_lora): LoRALinearLayer(
          (down): Linear(in_features=1280, out_features=4, bias=False)
          (up): Linear(in_features=4, out_features=1280, bias=False)
        )
        (to_k_lora): LoRALinearLayer(
          (down): Linear(in_features=1280, out_features=4, bias=False)
          (up): Linear(in_features=4, out_features=1280, bias=False)
        )
        (to_v_lora): LoRALinearLayer(
          (down): Linear(in_features=1280, out_features=4, bias=False)
          (up): Linear(in_features=4, out_features=1280, bias=False)
        )
        (to_out_lora): LoRALinearLayer(
          (down): Linear(in_features=1280, out_features=4, bias=False)
          (up): Linear(in_features=4, out_features=1280, bias=False)
        )
      )
      (31): LoRAAttnProcessor(
        (to_q_lora): LoRALinearLayer(
          (down): Linear(in_features=1280, out_features=4, bias=False)
          (up): Linear(in_features=4, out_features=1280, bias=False)
        )
        (to_k_lora): LoRALinearLayer(
          (down): Linear(in_features=768, out_features=4, bias=False)
          (up): Linear(in_features=4, out_features=1280, bias=False)
        )
        (to_v_lora): LoRALinearLayer(
          (down): Linear(in_features=768, out_features=4, bias=False)
          (up): Linear(in_features=4, out_features=1280, bias=False)
        )
        (to_out_lora): LoRALinearLayer(
          (down): Linear(in_features=1280, out_features=4, bias=False)
          (up): Linear(in_features=4, out_features=1280, bias=False)
        )
      )
    )
  )
)